data.pth (torch, 4759 bytes, 6 tensors)

l1.weight f4 [8, 47]
0	0x3f24ea58	0.6442008
1	0xbe9d35ff	-0.30705258
2	0xbc7caedd	-0.01542255
3	0x3f66ee02	0.9020692
4	0x3ea1056d	0.31449452
5	0x3f02fbda	0.51165545
6	0x3f09cbb2	0.5382644
7	0x3e8eeb4a	0.27913886
8	0xbec0f3d6	-0.37686032
9	0x3d1d6f4e	0.038436227
10	0x3ddd80f4	0.108156115
11	0xbe3100e7	-0.172855
12	0x3da96aff	0.08272361
13	0xbe9180b2	-0.284185
14	0x3f6a2e8e	0.91477287
15	0x3e9ddc78	0.30832267
16	0xbf2bde2a	-0.6713587
17	0x3eb2b8e2	0.3490668
18	0xbf2c29e3	-0.67251414
19	0xbf2b9446	-0.6702312
20	0xbed1919d	-0.40931407
21	0x3e0d6450	0.13807797
22	0xbe35d4b1	-0.17756917
23	0x3e8017ae	0.25018066
24	0xbebeaceb	-0.372413
25	0x3eb8245b	0.35965237
26	0xbed306b8	-0.41216063
27	0x3f0d38d0	0.55164814
28	0xbb5f0d17	-0.0034034902
29	0x3ef4def7	0.4782636
30	0x3eea01c6	0.45704478
31	0x3f22233d	0.6333502
32	0x3e66b01b	0.22528116
33	0x3e947d24	0.29001725
34	0x3f1f23fd	0.6216429
35	0x3e8f06d8	0.2793491
36	0x3e4a4685	0.19753464
37	0xbe4c32f2	-0.19941309
38	0x3e88149b	0.2657822
39	0xbeb13e6c	-0.34617937
40	0x3f6cbac6	0.92472494
41	0x3ee94ffa	0.4556883
42	0xbde2df89	-0.11077792
43	0x3ea0b7ee	0.31390327
44	0x3cbe757b	0.023249378
45	0x3e346ae7	0.17618905
46	0x3e6f66d8	0.23379076
47	0xbe0fec03	-0.14054875
48	0xbd328cee	-0.043591432
49	0xbf0754b5	-0.5286363
50	0xbe43bdd9	-0.1911539
51	0xbe29feb4	-0.16601068
52	0xbec4ff27	-0.38475916
53	0xbe11857f	-0.14211081
54	0xbe940a85	-0.28914276
55	0xbe3c5707	-0.18392573
56	0x3f36a150	0.71339893
57	0x3dbade19	0.09124393
58	0x3e5e4bd7	0.21708618
59	0x3ec468b8	0.38361144
60	0xbe326ae4	-0.17423588
61	0xbdca47f8	-0.09877008
62	0x3dbd5b5c	0.09245941
63	0xbeb758c7	-0.3580992
64	0x3f08458d	0.53231126
65	0xbeb75277	-0.35805103
66	0xbeb75921	-0.35810187
67	0x3e310e7e	0.17290685
68	0x3f0a8365	0.5410674
69	0xbdaef3df	-0.085426085
70	0x3ead0de7	0.3379967
71	0x3ee5325f	0.44764993
72	0x3f446041	0.7670937
73	0x3edceb02	0.43148047
74	0xbd8ddcd1	-0.06926883
75	0x3f389e47	0.7211651
76	0x3eafacac	0.34311426
77	0xbe0aaaab	-0.13541667
78	0xbd5492ba	-0.05189774
79	0xbe4fd7b3	-0.20297126
80	0xbddeb566	-0.10874443
81	0xbe0f8ef3	-0.14019375
82	0x3eb85159	0.35999563
83	0x3f008878	0.50208235
84	0x3e97808e	0.29590267
85	0x3ed50664	0.41606438
86	0x3e834857	0.25641128
87	0x3f693186	0.9109119
88	0x3ef39ffb	0.47582993
89	0xbe6a86a8	-0.2290293
90	0x3e580f0b	0.21099488
91	0x3f15faa5	0.5858558
92	0x3d9edfa4	0.077575
93	0x3c6724cf	0.014107897
94	0x3f1181be	0.56838596
95	0x3eed9b1b	0.464074
96	0x3e9ea022	0.30981547
97	0x3e10e340	0.14149189
98	0x3ee3117d	0.4434928
99	0x3ec49c99	0.38400725
100	0x3e96d76d	0.29461232
101	0x3ecf38db	0.40473065
102	0x3f0cbcb0	0.54975414
103	0xbee647fa	-0.4497679
104	0x3e6d743f	0.23188876
105	0xbe5481ed	-0.20752688
106	0xbedf2e73	-0.43590125
107	0x3ec3591b	0.3815392
108	0x3e99011a	0.29883653
109	0xbebd8ace	-0.37019962
110	0x3f06db2d	0.52678186
111	0xbea97aa7	-0.3310139
112	0x3f1dca3d	0.61636716
113	0x3ee4f7aa	0.44720203
114	0xbe0e76ca	-0.13912502
115	0x3e3ccaaf	0.18436693
116	0x3e879cb8	0.26486754
117	0xbeb92893	-0.36163768
118	0xbed0797b	-0.40717682
119	0xbe72771d	-0.2367825
120	0xbed20025	-0.41015735
121	0x3e95f53d	0.29288664
122	0xbeb218a8	-0.34784436
123	0x3a3204b6	0.0006790863
124	0x3f04cf26	0.51878583
125	0x3f107015	0.56421024
126	0x3edae16d	0.4275011
127	0x3eee4d7f	0.465435
128	0x3e18d1e9	0.14923824
129	0xbefa524f	-0.4889092
130	0xbee643c0	-0.44973564
131	0xbe4ba0ec	-0.19885606
132	0x3e86951d	0.2628564
133	0xbe86dd93	-0.26340923
134	0xbf104f49	-0.5637098
135	0xbeabe2dd	-0.3357152
136	0x3c95c76d	0.01828357
137	0xbece9eef	-0.40355632
138	0xbe517ace	-0.20457003
139	0xbe2ec368	-0.17066729
140	0x3ece800b	0.40332064
141	0xbf1a2da8	-0.60225916
142	0x3e875943	0.2643529
143	0x3f02cb19	0.5109115
144	0xbe9146a1	-0.28374198
145	0xbc744b82	-0.014910581
146	0xbe9ff76b	-0.31243452
147	0xbf02417f	-0.5088119
148	0xbec8d986	-0.39228457
149	0x3e7f941d	0.24958844
150	0xbebd67fb	-0.36993393
151	0x3f0b73f7	0.54473823
152	0xbd8f9f57	-0.070128135
153	0xbe80eb13	-0.25179347
154	0x3f057c12	0.5214244
155	0xbe76e1f7	-0.24109636
156	0x3ebacdfe	0.36485285
157	0x3f0ba92c	0.5455501
158	0xbe97f482	-0.29678732
159	0x3f07277a	0.5279461
160	0x3f12f56d	0.5740574
161	0x3ed5ec78	0.41781974
162	0xbecd891a	-0.40143663
163	0x3e9841e1	0.29737762
164	0x3f1bc5c4	0.6084864
165	0xbedb9030	-0.42883444
166	0x3f1331c7	0.5749783
167	0xbf0df816	-0.55456674
168	0xbde4642f	-0.11151921
169	0xbebfe963	-0.37482747
170	0xbdc1a066	-0.09454422
171	0xbf12ddee	-0.5736989
172	0xbf221a8f	-0.63321775
173	0xbd902229	-0.070377655
174	0xbb934b61	-0.00449507
175	0xbe158d6d	-0.14604731
176	0x3f3a5ab6	0.72794664
177	0xbe3ab8fb	-0.18234627
178	0xbe7ec049	-0.24878038
179	0xbef32982	-0.47492605
180	0xbe9f9aa3	-0.31172666
181	0xbf1ab2c9	-0.60429054
182	0xbeaaf971	-0.33393434
183	0x3f153265	0.5828002
184	0x3f27387e	0.65320575
185	0xbe1c17a7	-0.15243398
186	0x3f232aae	0.63737
187	0xbe34290a	-0.1759378
188	0x3f242f0f	0.64134306
189	0x3f0cd360	0.5501003
190	0x3f15b146	0.5847362
191	0x3ef017b8	0.46893096
192	0x3e97097b	0.2949942
193	0x3f22fdfe	0.6366881
194	0x3f02573e	0.5091437
195	0x3f35afd9	0.7097145
196	0x3e1bd9f5	0.15219863
197	0xbea38c30	-0.31942892
198	0x3e920ca9	0.28525284
199	0x3e4c5879	0.19955625
200	0xbea3f538	-0.32023025
201	0x3eb80040	0.3593769
202	0x3ed2f67e	0.41203684
203	0xbe5c485b	-0.21511976
204	0x3ef2baa1	0.47408012
205	0xbead89ff	-0.33894345
206	0x3ef0fb66	0.47066802
207	0x3eebee72	0.46080357
208	0x3ed218de	0.41034597
209	0x3e094922	0.13406804
210	0x3eded2af	0.43520114
211	0xbeceecb4	-0.40414965
212	0x3e5fd4d4	0.21858531
213	0xbea32441	-0.31863597
214	0xbe13b68e	-0.14425108
215	0x3e74299c	0.23843998
216	0xbebb7aa7	-0.36617014
217	0xbd2961e3	-0.041353118
218	0x3f19dfa2	0.6010686
219	0x3ece38c3	0.4027768
220	0x3e7bc038	0.24585044
221	0x3ef1b33a	0.47207052
222	0x3e98613b	0.2976168
223	0xbf205010	-0.62622166
224	0xbe845e6c	-0.25853288
225	0x3eacd579	0.33756617
226	0xbe45f369	-0.19331135
227	0x3e28a545	0.16469295
228	0xbf107f83	-0.5644457
229	0xbe87fd88	-0.26560616
230	0xbe4df261	-0.20111991
231	0xbe8716d2	-0.26384598
232	0xbec42156	-0.38306683
233	0xbe8bbf7a	-0.27294523
234	0x3ea42c8a	0.3206523
235	0x3f0a3486	0.53986394
236	0x3d2c7ec7	0.04211309
237	0x3e873e2f	0.2641463
238	0x3eea67f4	0.45782435
239	0x3ee397c5	0.44451728
240	0x3ef3b9aa	0.47602588
241	0x3f293bfd	0.6610716
242	0x3f06d67b	0.5267102
243	0xbe9bcafd	-0.30428305
244	0xbea2286d	-0.31671467
245	0x3e56d3b1	0.20979191
246	0xbe5f32fd	-0.21796794
247	0xbe6d5a50	-0.23178983
248	0xbe5c7e12	-0.21532467
249	0x3eef9f57	0.46801254
250	0xbe9771b1	-0.29578927
251	0xbec76f27	-0.3895199
252	0x3f112f17	0.5671248
253	0xbeeb2d5d	-0.45933047
254	0xbeb28b7d	-0.34872046
255	0xbe78539b	-0.24250643

l1.bias f4 [8]
0	0x3f37ead9	0.71842724
1	0x3eb75724	0.3580867
2	0x3f2c806b	0.6738345
3	0x3f2178f7	0.630752
4	0x3f1a95c7	0.6038479
5	0x3f050a73	0.5196907
6	0x3f4891b5	0.7834733
7	0x3f189daf	0.59615606

l2.weight f4 [8, 8]
0	0x3ded535b	0.115881644
1	0x3f6fba1d	0.9364336
2	0xbf0d611f	-0.5522632
3	0xbf9387f6	-1.1525867
4	0xbcec81ea	-0.028870542
5	0x3ee02728	0.43779874
6	0x3f5153c3	0.81768435
7	0x3f0f0080	0.5586014
8	0x3ee5c327	0.44875452
9	0x3f88181e	1.063236
10	0xbf14e737	-0.58165306
11	0x3f98832f	1.1915034
12	0xbf0db139	-0.55348545
13	0xbf0227e2	-0.50842106
14	0x3ef76c5f	0.48324868
15	0x3f90bb37	1.1307133
16	0xbf4aba66	-0.7919067
17	0xbf32f4b3	-0.6990463
18	0x3f00c692	0.50302994
19	0x3f4cac00	0.7994995
20	0x3eea23fa	0.45730573
21	0x3d2792cf	0.040911492
22	0x3fc4e99e	1.5383794
23	0x3f41c9c9	0.75698525
24	0x3eb67238	0.35634017
25	0xbf8a9f33	-1.0829834
26	0x3f8f6926	1.1203964
27	0x3f27cfec	0.6555164
28	0x3fbeada9	1.4896747
29	0x3e606a0b	0.21915452
30	0xbd8e243e	-0.069405064
31	0xbec66508	-0.38748956
32	0x3fb9e78d	1.4523789
33	0x3e881a81	0.2658272
34	0x3f790356	0.97270715
35	0xbf7de436	-0.9917635
36	0x3f15e750	0.5855608
37	0x3fbd2d01	1.4779359
38	0x3f32d4f3	0.69856185
39	0xbf9c2ab4	-1.2200532
40	0x3e7a8fac	0.24468869
41	0xbe89a6ee	-0.2688517
42	0xbe633e4b	-0.22191732
43	0xbe5bb85a	-0.21457043
44	0xbd355457	-0.044269886
45	0x3e189be4	0.14903218
46	0xbea1872c	-0.3154844
47	0xbe7eb946	-0.24875364
48	0xbedba0e6	-0.42896193
49	0x3f578885	0.8419269
50	0xbed32ed1	-0.41246656
51	0xbf1835f5	-0.5945733
52	0x3ebe12a0	0.37123585
53	0xbeffdfbe	-0.4997539
54	0xbe06bf33	-0.13158874
55	0x3f5ebc09	0.8700567
56	0xbf84d184	-1.0376439
57	0xbf1b61ed	-0.606963
58	0x3f6c85d4	0.92391706
59	0xbeb6b546	-0.35685176
60	0x3f5631bb	0.8366963
61	0xbe14668a	-0.1449224
62	0x3faf1c89	1.3680583
63	0x3f23e600	0.6402283

l2.bias f4 [8]
0	0x3e27732b	0.16352527
1	0x3f158803	0.5841066
2	0x3e2cd19c	0.16876835
3	0x3f58c974	0.84682393
4	0x3ec5140b	0.38491854
5	0xbea3544a	-0.31900245
6	0x3c22bc70	0.009932622
7	0x3ec54e9b	0.38536534

l3.weight f4 [7, 8]
0	0x3ef31a89	0.47481182
1	0x3f0dbdda	0.55367815
2	0xbfca074b	-1.5783476
3	0xbeab577f	-0.33465192
4	0xbf942b49	-1.157571
5	0x3d5c4ebc	0.053786024
6	0x3f72edb6	0.9489397
7	0xbf32edbc	-0.69894004
8	0x3f158ff0	0.58422756
9	0xbe09eb86	-0.13468751
10	0xbc6be597	-0.014398
11	0xbf3a7fb0	-0.72851086
12	0xbf828ddb	-1.0199541
13	0x3ea7e859	0.32794455
14	0xbd420905	-0.047371883
15	0x3efb6a55	0.49104562
16	0xbf95cb6f	-1.1702708
17	0xbf816afb	-1.0110773
18	0xbfb41acd	-1.4070679
19	0x3f839554	1.0279946
20	0x3f4b875e	0.7950343
21	0xbe046bc0	-0.12931728
22	0xbee5cb6c	-0.4488176
23	0xbf80b8a1	-1.0056344
24	0xbff5d276	-1.9204853
25	0xbea911ef	-0.33021495
26	0x3f12f82d	0.57409936
27	0x3ed4a274	0.41530192
28	0xbed0665b	-0.4070309
29	0xbead5ad6	-0.33858365
30	0xbf77a907	-0.9674229
31	0x3f273fba	0.65331614
32	0xbf8cba6e	-1.0994394
33	0x3f56f4c3	0.83967227
34	0x3e481036	0.19537434
35	0xbe7d13c7	-0.24714576
36	0xbf9acfb2	-1.2094634
37	0xbe2ad822	-0.1668401
38	0xbf7b66cc	-0.9820373
39	0xbf40246f	-0.75055593
40	0xbf1d2042	-0.61377347
41	0xbfb0f04f	-1.3823336
42	0x3e09c2c5	0.13453205
43	0x3e27ee8b	0.1639959
44	0x3f107ebe	0.56443393
45	0x3e59120d	0.21198292
46	0xbecdd224	-0.40199387
47	0x3eb94c44	0.36191
48	0x3ede1ec4	0.43382847
49	0xbe177575	-0.147909
50	0xbe9e55ba	-0.3092478
51	0xbf55141a	-0.832338
52	0x3f309a37	0.68985313
53	0xbd26b819	-0.040702913
54	0xbf646a19	-0.8922439
55	0xbf017590	-0.5057001

l3.bias f4 [7]
0	0xbdd494b4	-0.10379925
1	0x3b88f713	0.004179844
2	0x3ef2a56d	0.47391835
3	0x3ded705d	0.11593697
4	0x3e8c1668	0.27360845
5	0xbf108a69	-0.564612
6	0x3c97c676	0.01852725
